App/ChopChop/app/src/main/assets/LSTM_AE.tflite (tflite, 133816 bytes, 20 tensors)

model_145/lstm_582/TensorArrayV2_1 f4 [32, 1, 16]
00000000: 0000 0000 0000 0000 0000 0000 0000 0000
00000010: 0000 0000 0000 0000 0000 0000 0000 0000
00000020: 0000 0000 0000 0000 0000 0000 0000 0000
00000030: 0000 0000 0000 0000 0000 0000 0000 0000
00000040: 0000 0000 0000 0000 0000 0000 0000 0000
00000050: 0000 0000 0000 0000 0000 0000 0000 0000
00000060: 0000 0000 0000 0000 0000 0000 0000 0000
00000070: 0000 0000 0000 0000 0000 0000 0000 0000
00000080: 0000 0000 0000 0000 0000 0000 0000 0000
00000090: 0000 0000 0000 0000 0000 0000 0000 0000
000000a0: 0000 0000 0000 0000 0000 0000 0000 0000
000000b0: 0000 0000 0000 0000 0000 0000 0000 0000
000000c0: 0000 0000 0000 0000 0000 0000 0000 0000
000000d0: 0000 0000 0000 0000 0000 0000 0000 0000
000000e0: 0000 0000 0000 0000 0000 0000 0000 0000
000000f0: 0000 0000 0000 0000 0000 0000 0000 0000
00000100: 0000 0000 0000 0000 0000 0000 0000 0000
00000110: 0000 0000 0000 0000 0000 0000 0000 0000
00000120: 0000 0000 0000 0000 0000 0000 0000 0000
00000130: 0000 0000 0000 0000 0000 0000 0000 0000
00000140: 0000 0000 0000 0000 0000 0000 0000 0000
00000150: 0000 0000 0000 0000 0000 0000 0000 0000
00000160: 0000 0000 0000 0000 0000 0000 0000 0000
00000170: 0000 0000 0000 0000 0000 0000 0000 0000
00000180: 0000 0000 0000 0000 0000 0000 0000 0000
00000190: 0000 0000 0000 0000 0000 0000 0000 0000
000001a0: 0000 0000 0000 0000 0000 0000 0000 0000
000001b0: 0000 0000 0000 0000 0000 0000 0000 0000
000001c0: 0000 0000 0000 0000 0000 0000 0000 0000
000001d0: 0000 0000 0000 0000 0000 0000 0000 0000
000001e0: 0000 0000 0000 0000 0000 0000 0000 0000
000001f0: 0000 0000 0000 0000 0000 0000 0000 0000
00000200: 0000 0000 0000 0000 0000 0000 0000 0000
00000210: 0000 0000 0000 0000 0000 0000 0000 0000
00000220: 0000 0000 0000 0000 0000 0000 0000 0000
00000230: 0000 0000 0000 0000 0000 0000 0000 0000
00000240: 0000 0000 0000 0000 0000 0000 0000 0000
00000250: 0000 0000 0000 0000 0000 0000 0000 0000
00000260: 0000 0000 0000 0000 0000 0000 0000 0000
00000270: 0000 0000 0000 0000 0000 0000 0000 0000
00000280: 0000 0000 0000 0000 0000 0000 0000 0000
00000290: 0000 0000 0000 0000 0000 0000 0000 0000
000002a0: 0000 0000 0000 0000 0000 0000 0000 0000
000002b0: 0000 0000 0000 0000 0000 0000 0000 0000
000002c0: 0000 0000 0000 0000 0000 0000 0000 0000
000002d0: 0000 0000 0000 0000 0000 0000 0000 0000
000002e0: 0000 0000 0000 0000 0000 0000 0000 0000
000002f0: 0000 0000 0000 0000 0000 0000 0000 0000
00000300: 0000 0000 0000 0000 0000 0000 0000 0000
00000310: 0000 0000 0000 0000 0000 0000 0000 0000
00000320: 0000 0000 0000 0000 0000 0000 0000 0000
00000330: 0000 0000 0000 0000 0000 0000 0000 0000
00000340: 0000 0000 0000 0000 0000 0000 0000 0000
00000350: 0000 0000 0000 0000 0000 0000 0000 0000
00000360: 0000 0000 0000 0000 0000 0000 0000 0000
00000370: 0000 0000 0000 0000 0000 0000 0000 0000
00000380: 0000 0000 0000 0000 0000 0000 0000 0000
00000390: 0000 0000 0000 0000 0000 0000 0000 0000
000003a0: 0000 0000 0000 0000 0000 0000 0000 0000
000003b0: 0000 0000 0000 0000 0000 0000 0000 0000
000003c0: 0000 0000 0000 0000 0000 0000 0000 0000
000003d0: 0000 0000 0000 0000 0000 0000 0000 0000
000003e0: 0000 0000 0000 0000 0000 0000 0000 0000
000003f0: 0000 0000 0000 0000 0000 0000 0000 0000
0.0 0.0 0.0 0.0 0.0 0.0 0.0 0.0
0.0 0.0 0.0 0.0 0.0 0.0 0.0 0.0
0.0 0.0 0.0 0.0 0.0 0.0 0.0 0.0
0.0 0.0 0.0 0.0 0.0 0.0 0.0 0.0
0.0 0.0 0.0 0.0 0.0 0.0 0.0 0.0
0.0 0.0 0.0 0.0 0.0 0.0 0.0 0.0
0.0 0.0 0.0 0.0 0.0 0.0 0.0 0.0
0.0 0.0 0.0 0.0 0.0 0.0 0.0 0.0
0.0 0.0 0.0 0.0 0.0 0.0 0.0 0.0
0.0 0.0 0.0 0.0 0.0 0.0 0.0 0.0
0.0 0.0 0.0 0.0 0.0 0.0 0.0 0.0
0.0 0.0 0.0 0.0 0.0 0.0 0.0 0.0
0.0 0.0 0.0 0.0 0.0 0.0 0.0 0.0
0.0 0.0 0.0 0.0 0.0 0.0 0.0 0.0
0.0 0.0 0.0 0.0 0.0 0.0 0.0 0.0
0.0 0.0 0.0 0.0 0.0 0.0 0.0 0.0
0.0 0.0 0.0 0.0 0.0 0.0 0.0 0.0
0.0 0.0 0.0 0.0 0.0 0.0 0.0 0.0
0.0 0.0 0.0 0.0 0.0 0.0 0.0 0.0
0.0 0.0 0.0 0.0 0.0 0.0 0.0 0.0
0.0 0.0 0.0 0.0 0.0 0.0 0.0 0.0
0.0 0.0 0.0 0.0 0.0 0.0 0.0 0.0
0.0 0.0 0.0 0.0 0.0 0.0 0.0 0.0
0.0 0.0 0.0 0.0 0.0 0.0 0.0 0.0
0.0 0.0 0.0 0.0 0.0 0.0 0.0 0.0
0.0 0.0 0.0 0.0 0.0 0.0 0.0 0.0
0.0 0.0 0.0 0.0 0.0 0.0 0.0 0.0
0.0 0.0 0.0 0.0 0.0 0.0 0.0 0.0
0.0 0.0 0.0 0.0 0.0 0.0 0.0 0.0
0.0 0.0 0.0 0.0 0.0 0.0 0.0 0.0
0.0 0.0 0.0 0.0 0.0 0.0 0.0 0.0
0.0 0.0 0.0 0.0 0.0 0.0 0.0 0.0

model_145/lstm_580/TensorArrayV2_1 f4 [32, 1, 32]
00000000: 0000 0000 0000 0000 0000 0000 0000 0000
00000010: 0000 0000 0000 0000 0000 0000 0000 0000
00000020: 0000 0000 0000 0000 0000 0000 0000 0000
00000030: 0000 0000 0000 0000 0000 0000 0000 0000
00000040: 0000 0000 0000 0000 0000 0000 0000 0000
00000050: 0000 0000 0000 0000 0000 0000 0000 0000
00000060: 0000 0000 0000 0000 0000 0000 0000 0000
00000070: 0000 0000 0000 0000 0000 0000 0000 0000
00000080: 0000 0000 0000 0000 0000 0000 0000 0000
00000090: 0000 0000 0000 0000 0000 0000 0000 0000
000000a0: 0000 0000 0000 0000 0000 0000 0000 0000
000000b0: 0000 0000 0000 0000 0000 0000 0000 0000
000000c0: 0000 0000 0000 0000 0000 0000 0000 0000
000000d0: 0000 0000 0000 0000 0000 0000 0000 0000
000000e0: 0000 0000 0000 0000 0000 0000 0000 0000
000000f0: 0000 0000 0000 0000 0000 0000 0000 0000
00000100: 0000 0000 0000 0000 0000 0000 0000 0000
00000110: 0000 0000 0000 0000 0000 0000 0000 0000
00000120: 0000 0000 0000 0000 0000 0000 0000 0000
00000130: 0000 0000 0000 0000 0000 0000 0000 0000
00000140: 0000 0000 0000 0000 0000 0000 0000 0000
00000150: 0000 0000 0000 0000 0000 0000 0000 0000
00000160: 0000 0000 0000 0000 0000 0000 0000 0000
00000170: 0000 0000 0000 0000 0000 0000 0000 0000
00000180: 0000 0000 0000 0000 0000 0000 0000 0000
00000190: 0000 0000 0000 0000 0000 0000 0000 0000
000001a0: 0000 0000 0000 0000 0000 0000 0000 0000
000001b0: 0000 0000 0000 0000 0000 0000 0000 0000
000001c0: 0000 0000 0000 0000 0000 0000 0000 0000
000001d0: 0000 0000 0000 0000 0000 0000 0000 0000
000001e0: 0000 0000 0000 0000 0000 0000 0000 0000
000001f0: 0000 0000 0000 0000 0000 0000 0000 0000
00000200: 0000 0000 0000 0000 0000 0000 0000 0000
00000210: 0000 0000 0000 0000 0000 0000 0000 0000
00000220: 0000 0000 0000 0000 0000 0000 0000 0000
00000230: 0000 0000 0000 0000 0000 0000 0000 0000
00000240: 0000 0000 0000 0000 0000 0000 0000 0000
00000250: 0000 0000 0000 0000 0000 0000 0000 0000
00000260: 0000 0000 0000 0000 0000 0000 0000 0000
00000270: 0000 0000 0000 0000 0000 0000 0000 0000
00000280: 0000 0000 0000 0000 0000 0000 0000 0000
00000290: 0000 0000 0000 0000 0000 0000 0000 0000
000002a0: 0000 0000 0000 0000 0000 0000 0000 0000
000002b0: 0000 0000 0000 0000 0000 0000 0000 0000
000002c0: 0000 0000 0000 0000 0000 0000 0000 0000
000002d0: 0000 0000 0000 0000 0000 0000 0000 0000
000002e0: 0000 0000 0000 0000 0000 0000 0000 0000
000002f0: 0000 0000 0000 0000 0000 0000 0000 0000
00000300: 0000 0000 0000 0000 0000 0000 0000 0000
00000310: 0000 0000 0000 0000 0000 0000 0000 0000
00000320: 0000 0000 0000 0000 0000 0000 0000 0000
00000330: 0000 0000 0000 0000 0000 0000 0000 0000
00000340: 0000 0000 0000 0000 0000 0000 0000 0000
00000350: 0000 0000 0000 0000 0000 0000 0000 0000
00000360: 0000 0000 0000 0000 0000 0000 0000 0000
00000370: 0000 0000 0000 0000 0000 0000 0000 0000
00000380: 0000 0000 0000 0000 0000 0000 0000 0000
00000390: 0000 0000 0000 0000 0000 0000 0000 0000
000003a0: 0000 0000 0000 0000 0000 0000 0000 0000
000003b0: 0000 0000 0000 0000 0000 0000 0000 0000
000003c0: 0000 0000 0000 0000 0000 0000 0000 0000
000003d0: 0000 0000 0000 0000 0000 0000 0000 0000
000003e0: 0000 0000 0000 0000 0000 0000 0000 0000
000003f0: 0000 0000 0000 0000 0000 0000 0000 0000
0.0 0.0 0.0 0.0 0.0 0.0 0.0 0.0
0.0 0.0 0.0 0.0 0.0 0.0 0.0 0.0
0.0 0.0 0.0 0.0 0.0 0.0 0.0 0.0
0.0 0.0 0.0 0.0 0.0 0.0 0.0 0.0
0.0 0.0 0.0 0.0 0.0 0.0 0.0 0.0
0.0 0.0 0.0 0.0 0.0 0.0 0.0 0.0
0.0 0.0 0.0 0.0 0.0 0.0 0.0 0.0
0.0 0.0 0.0 0.0 0.0 0.0 0.0 0.0
0.0 0.0 0.0 0.0 0.0 0.0 0.0 0.0
0.0 0.0 0.0 0.0 0.0 0.0 0.0 0.0
0.0 0.0 0.0 0.0 0.0 0.0 0.0 0.0
0.0 0.0 0.0 0.0 0.0 0.0 0.0 0.0
0.0 0.0 0.0 0.0 0.0 0.0 0.0 0.0
0.0 0.0 0.0 0.0 0.0 0.0 0.0 0.0
0.0 0.0 0.0 0.0 0.0 0.0 0.0 0.0
0.0 0.0 0.0 0.0 0.0 0.0 0.0 0.0
0.0 0.0 0.0 0.0 0.0 0.0 0.0 0.0
0.0 0.0 0.0 0.0 0.0 0.0 0.0 0.0
0.0 0.0 0.0 0.0 0.0 0.0 0.0 0.0
0.0 0.0 0.0 0.0 0.0 0.0 0.0 0.0
0.0 0.0 0.0 0.0 0.0 0.0 0.0 0.0
0.0 0.0 0.0 0.0 0.0 0.0 0.0 0.0
0.0 0.0 0.0 0.0 0.0 0.0 0.0 0.0
0.0 0.0 0.0 0.0 0.0 0.0 0.0 0.0
0.0 0.0 0.0 0.0 0.0 0.0 0.0 0.0
0.0 0.0 0.0 0.0 0.0 0.0 0.0 0.0
0.0 0.0 0.0 0.0 0.0 0.0 0.0 0.0
0.0 0.0 0.0 0.0 0.0 0.0 0.0 0.0
0.0 0.0 0.0 0.0 0.0 0.0 0.0 0.0
0.0 0.0 0.0 0.0 0.0 0.0 0.0 0.0
0.0 0.0 0.0 0.0 0.0 0.0 0.0 0.0
0.0 0.0 0.0 0.0 0.0 0.0 0.0 0.0

model_145/lstm_580/lstm_cell_580/BiasAdd/ReadVariableOp/resource f4 [128]
00000000: 2d7f 0fbc 52e6 31bb 3659 60bb 6430 733b
00000010: a5d3 b6bb 8976 673a 40b2 6ab9 fe38 653b
00000020: d4b7 2739 713d 91bb 9624 093c 5d1a b63c
00000030: e118 dcba 7fbe 9a3b 88be febb 2c8f 00bb
00000040: c03e 14bc 3718 08bc 41bd bb3b 4f86 9dbb
00000050: c5ee e9b9 18a3 df3a adf3 7a3c 2afe d8bb
00000060: 44aa 6dbc 9bc5 0bbc 2211 ecba 591c 8ebc
00000070: 391a 21ba 325a ebb9 e1a5 6eba b0f6 9d3c
00000080: dbe6 7d3f eaab 823f e53e 803f 887b 803f
00000090: 0648 7e3f 8ac3 7f3f a759 803f a66f 803f
000000a0: 95b4 7f3f 957e 7e3f f708 813f 3139 823f
000000b0: 2f15 803f 6eb7 803f ab07 7e3f 8094 7f3f
000000c0: 8778 7e3f 81c8 7d3f 785b 803f bd68 803f
000000d0: d26b 803f 5569 7f3f ca59 813f a3ba 7e3f
000000e0: 2377 7e3f 5458 7e3f f50f 7f3f 37ae 783f
000000f0: 8762 7f3f 4d95 7f3f 2986 7f3f 0046 823f
00000100: 43a9 0cbc 6214 8b3b 8b7e de3b c5e0 f53b
00000110: 80fc b2bb 0dd1 e33a 10ab ebbb 5785 003b
00000120: 212e 033b f6a8 9abb bd1f 173c d90c a63c
00000130: 76d1 45bb 2e5d 9c3b 13bc 05bc 00a4 9ebb
00000140: 5f20 09bc 3421 03bc d262 b03b 960c 643b
00000150: b32c 0e3b 184b 27bb bb25 123c 506d c7bb
00000160: d72b 89bc 85dd d1bb 06ca 46bb 570f 5dbc
00000170: b98b b6ba 6094 11bb ce30 12ba 825d 9b3c
00000180: 1e49 09bc 6902 ba3b 5235 72bb 66b0 093c
00000190: e512 bebb 9244 5e3b 83b2 14bb f82a 5c3b
000001a0: 3c7a ad3b 2809 b4bb d9e7 103c 42f7 2c3c
000001b0: 580a 53bc 7934 5d3b 8d78 0abc 7cf3 923b
000001c0: a042 0dbc f9cf febb 25fb a13b 9bf5 a43b
000001d0: 57a4 d837 4a68 2d3a 0d9c 373c 88da 423b
000001e0: 3cc0 74bc 9f97 eebb 226a aabb d137 bebc
000001f0: 600b 823b 6073 d43a b68b 65ba 6502 813c
-0.008758348 -0.0027145338 -0.0034232861 0.00371077 -0.005579429 0.0008829614 -0.00022382382 0.0034976597
0.00015994842 -0.004432373 0.008370539 0.022229368 -0.0016792082 0.004722416 -0.007774178 -0.0019616587
-0.009048164 -0.0083065545 0.005729348 -0.0048072706 -0.0004461912 0.0017062156 0.015316886 -0.0066220956
-0.0145059265 -0.0085309995 -0.0018010477 -0.017347502 -0.000614557 -0.00044889894 -0.00091036974 0.019282669
0.9918038 1.0208714 1.0019194 1.0037699 0.9932865 0.99907744 1.002736 1.0034072
0.9988492 0.994119 1.0080861 1.0173703 1.0006465 1.0055978 0.9923045 0.9983597
0.9940266 0.9913407 1.0027914 1.0031964 1.0032904 0.997701 1.0105526 0.99503535
0.9940054 0.9935353 0.99633723 0.9714083 0.99759716 0.9983719 0.9981409 1.0177612
-0.008585277 0.004244373 0.0067899874 0.0075036013 -0.0054622293 0.0017381028 -0.007192023 0.0019610727
0.0020016509 -0.0047198487 0.009223876 0.020269798 -0.0030184663 0.00477185 -0.008162516 -0.0048413277
-0.008369534 -0.008003522 0.005382874 0.003479754 0.0021694123 -0.0025526937 0.008920128 -0.006086029
-0.016744537 -0.006404581 -0.0030332818 -0.013492427 -0.0013927139 -0.0022213683 -0.00055767305 0.018965486
-0.008379249 0.005676557 -0.003695805 0.008403873 -0.0058005922 0.0033915383 -0.002268941 0.0033594947
0.0052941125 -0.0054942556 0.008844339 0.010556998 -0.012880884 0.00337532 -0.008451593 0.004484592
-0.008621842 -0.007776257 0.004943269 0.0050341613 2.5825733e-05 0.00066149666 0.011206639 0.0029732306
-0.01493841 -0.0072812582 -0.0052006403 -0.023219975 0.003968641 0.0016208701 -0.0008756475 0.015748212

model_145/lstm_581/lstm_cell_581/BiasAdd/ReadVariableOp/resource f4 [64]
00000000: 3e0c ad3b d937 3b3d d0f0 053c cf90 a33b
00000010: 4083 eabb 58d6 513b 1353 83bb 2b7e babb
00000020: d79d 85bb 2735 af3b 981c c5bb 097f d03c
00000030: 29c2 dbbb 048b 02bc fd71 babb cd8e d0bc
00000040: bdc7 803f abb7 853f 2475 803f 00b6 803f
00000050: 293c 7f3f c3d8 7f3f 21e4 7e3f 3b7e 7e3f
00000060: 1e15 7e3f 08ef 803f be77 7e3f c9a9 853f
00000070: 0153 7e3f e679 7d3f 2bb7 7e3f 25fc 7c3f
00000080: 203b f23b 71a2 903d e8cb 303c 403d 183c
00000090: 033e d6bb 9b59 e23b e5d6 a1bb 65fa 8fbb
000000a0: 55c7 bcbb 51ac c03b 8aae c3bb 1b2f 1b3d
000000b0: 8ad1 d3bb e7df 1dbc 4599 67bb 4874 a3bc
000000c0: 54a4 273c d138 403d 37be 953b 9e89 143c
000000d0: e21c e0bb 8cbc 0bbc ac4d 94bb 903c 9fbb
000000e0: 61e5 05bc d4ad ce3b bda0 bfbb f8fb f93c
000000f0: 4dec f2bb 9fc1 63bc d7db c63b 67dd 02bd
0.0052810004 0.045707557 0.00817509 0.0049916278 -0.0071567595 0.0032018628 -0.004007706 -0.00569131
-0.004077654 0.0053469124 -0.0060153715 0.0254512 -0.0067064953 -0.007967714 -0.005689858 -0.025458718
1.0060955 1.0446676 1.0035748 1.0055542 0.9970117 0.9994013 0.9956685 0.9941136
0.9925097 1.0072947 0.9940146 1.0442439 0.99345404 0.9901413 0.9949824 0.9882224
0.007392302 0.07062233 0.010790803 0.009291947 -0.006538154 0.0069076545 -0.0049389475 -0.004393863
-0.005761067 0.0058799167 -0.0059717344 0.03788672 -0.006464188 -0.009635902 -0.0035339158 -0.019952908
0.01023205 0.046929184 0.0045697945 0.009066014 -0.0068393806 -0.00852884 -0.004525861 -0.0048595145
-0.008172364 0.006307343 -0.005848019 0.030515656 -0.007413423 -0.013901143 0.0060686874 -0.031949427

model_145/lstm_582/lstm_cell_582/BiasAdd/ReadVariableOp/resource f4 [64]
00000000: 3edb c7bb 9d10 913c f431 f0bb e216 4bbc
00000010: 740f a53d cc20 773d 9097 933c a814 ef3c
00000020: 05fa c5ba cd2f f93a 8829 61b9 99b3 013d
00000030: 3387 06bc 86a0 5d3b e8df 08bc 2f7e 20ba
00000040: 9d56 7e3f 8e25 813f 6f99 7e3f 02ca 7d3f
00000050: 034a 863f 6e5d 823f 740f 803f cf86 853f
00000060: b809 7f3f c727 813f 1a5d 7e3f 1abc 813f
00000070: dc40 7d3f b10e 813f 7806 7e3f ca5a 7e3f
00000080: cab2 babb dea6 813a d27e a739 9f5f dcbb
00000090: 87d3 9b3d ee05 8d3c b0b7 3e3d d356 563c
000000a0: cd26 c8bb 8a56 a83c 9f3b 673c dc88 1d3d
000000b0: de7b 1bbc 6491 113d b6df f6bb 3356 023b
000000c0: 5142 03bc 0f9e 8ebb ec63 e8bb b1cc e3bb
000000d0: 0128 613d b3eb f03c 369a 243c b17c 143d
000000e0: 5346 12bd 0e32 403c 78f6 ca3a 473b d43c
000000f0: 7a50 3fbc e801 1e3c 7ee0 e2bb eb9d 553b
-0.0060991338 0.017708117 -0.0073301736 -0.012395592 0.08059588 0.060334012 0.018016607 0.029184654
-0.0015104419 0.0019011438 -0.00021473144 0.03166542 -0.008210945 0.0033817603 -0.008354165 -0.00061223184
0.9935091 1.0089586 0.9945287 0.99136364 1.0491337 1.0184762 1.0004716 1.0431765
0.99624205 1.0090264 0.9936081 1.0135529 0.9892709 1.0082608 0.9922862 0.99357283
-0.005697583 0.0009891649 0.0003194721 -0.006725266 0.07608705 0.017214742 0.046561897 0.013082224
-0.006108141 0.020549078 0.014113336 0.038460597 -0.009489981 0.035539046 -0.0075339926 0.0019887805
-0.0080114165 -0.004352338 -0.0070919897 -0.0069518914 0.05496979 0.029409265 0.010046532 0.036251727
-0.035711598 0.011730684 0.001548483 0.025907172 -0.011676902 0.009644009 -0.006923734 0.0032595347

model_145/lstm_583/lstm_cell_583/BiasAdd/ReadVariableOp/resource f4 [128]
00000000: e51c fe3c c693 723b 4653 aa3d 6ac3 cabc
00000010: 0969 5e3d 08f0 433d e5a5 a9bc 34a5 1fba
00000020: ad9b 9dbc f9f5 35bb ed88 8a3d 25b1 5bba
00000030: 6880 f1bb 68f8 6cbc 7be9 6a3d 5264 583d
00000040: 916d bd3d ceb0 d5bb c8ca 6b3b de95 91bc
00000050: 00a1 eabb 7bab cabb 0cf3 54bb c032 783c
00000060: f874 a83c 5832 913b e628 2b3d 3bea ce3d
00000070: 35d5 c4bb 2dde 0d3c 3d48 8abc 4b72 9dbc
00000080: 9ea2 823f 025b 7f3f 8c1f 893f 7f61 7b3f
00000090: ec32 873f bef6 803f 7213 7e3f 6494 7f3f
000000a0: d9fc 793f 91ee 7a3f 6178 803f d2b2 7f3f
000000b0: 1ab4 7d3f 1abf 7a3f 965e 853f 00ff 843f
000000c0: 4865 873f 247e 7e3f de9e 7f3f fc64 7b3f
000000d0: a64f 7d3f 4d81 7e3f 22e6 7b3f b69f 803f
000000e0: 7dc6 823f 3a1d 7f3f 2364 863f 5b6a 883f
000000f0: 2f76 7e3f 7613 813f 02d2 7a3f ddfd 7a3f
00000100: 9f4c 9d3d 8020 de3b 9439 cb3d 7127 09bd
00000110: 9a99 cf3d b555 8c3d f6b9 0bbc 667f a3bc
00000120: a4c9 81bc bae5 67ba 6cb7 863d 3ee0 bdbc
00000130: 5ec4 02bc da5e 27bd 32ca ab3d 5bb5 9f3d
00000140: 7952 bd3d d302 e8bb 06aa 8e3d c069 dcbc
00000150: bd42 22bc e319 ddbb 1435 833c 76e6 df3c
00000160: 2219 1a3d 6a90 8d3b d9df 893d c8ba 983d
00000170: 7e20 c8bb e8a5 873c dff3 9dbc 77e2 41bc
00000180: a14e c93c 6b64 1a3c dcf1 aa3d e757 2fbb
00000190: 1870 c33d cb7f 633d 6e26 13bc bb4a 0bba
000001a0: a32f f3bc 199a 52bc c222 993c 1b00 00bb
000001b0: 5868 b73b 95a1 3dbc c9f7 123d 8f16 8e3d
000001c0: 274b 6d3d 6040 23bc 139e 473b 6200 55bc
000001d0: bcb8 03bc 652f bebb 3470 cabb ad0c abbb
000001e0: bc10 d73c d5d8 953b e8b3 6a3d a57c 813d
000001f0: f1d5 c4bb cb0b 073c ab40 7abc 3c75 90bc
0.031019637 0.003701435 0.083166644 -0.024751384 0.054299388 0.047836334 -0.020708987 -0.0006089986
-0.019239271 -0.002776502 0.06764398 -0.00083805836 -0.0073700435 -0.014463522 0.05735157 0.052830048
0.09249414 -0.006521321 0.0035979021 -0.017771658 -0.007160306 -0.006184993 -0.00324935 0.0151488185
0.020563588 0.0044310503 0.04178705 0.1010327 -0.0060068616 0.008658928 -0.016880149 -0.019219538
1.0205877 0.9974824 1.0712752 0.9819564 1.0562415 1.00753 0.9924842 0.998358
0.9765144 0.98020273 1.0036737 0.99882233 0.9910294 0.9794785 1.041949 1.039032
1.0577784 0.99411225 0.9985179 0.98200965 0.9894966 0.9941605 0.9839803 1.004874
1.0216824 0.9965397 1.0499309 1.0657457 0.99399084 1.0084064 0.97976696 0.98043615
0.0768063 0.0067787766 0.099230915 -0.03348488 0.10136719 0.06852285 -0.008528223 -0.01995821
-0.01584322 -0.00088461826 0.06577954 -0.023178216 -0.007981388 -0.040861942 0.08388175 0.07798263
0.09244246 -0.007080415 0.06966023 -0.026905894 -0.009903607 -0.0067474707 0.01601652 0.027331572
0.037621625 0.004320194 0.06732149 0.07457501 -0.006107389 0.016558602 -0.019281326 -0.011833779
0.024573626 0.009423356 0.08346912 -0.0026755275 0.095428646 0.055541795 -0.00898133 -0.0005313565
-0.0296858 -0.012854123 0.018693332 -0.0019531313 0.0055971555 -0.011574169 0.035880838 0.069378965
0.057933 -0.009964079 0.003045921 -0.01300058 -0.00803965 -0.0058039897 -0.0061779264 -0.005220017
0.026253097 0.0045729675 0.05730048 0.06322602 -0.006006949 0.008242558 -0.015274207 -0.017634027

model_145/time_distributed_145/dense_145/BiasAdd/ReadVariableOp/resource f4 [37]
00000000: 2b1b 76bd 88f0 9dbd 7e7f c2bb 2cb0 aebd
00000010: 036a 95bd b11c ccbd 8fac 75bd bc8c 96bd
00000020: e124 b63d 37e7 8b3d a581 b6bd 4ea2 9dbd
00000030: 7729 78bd 69e4 44bd 0573 91bd c397 8bbd
00000040: 15a7 9c3d 6214 a83d a524 84bd 1d54 a9bd
00000050: 9da4 2bbd f853 df3c 844e 673c 57ef 1b3d
00000060: 5b7a c33d c0d4 943d eeb3 aebd 1831 32bd
00000070: 425d 09bd c4e8 a53c 7d57 61bd 302d 613c
00000080: 5048 8d3d ec32 b43d 216c 293d 529c b5bd
00000090: 0e0c 763d
-0.060084503 -0.07711893 -0.0059356084 -0.08529696 -0.07295611 -0.0996641 -0.059979018 -0.07351062
0.08893753 0.0683121 -0.089114465 -0.07696973 -0.06058642 -0.04806939 -0.07102016 -0.068160556
0.07649056 0.08207013 -0.06452302 -0.082679965 -0.041905034 0.02726172 0.014117841 0.03807005
0.09544822 0.07267141 -0.085304126 -0.04350385 -0.033536203 0.020252593 -0.055015076 0.013743684
0.06898558 0.08798775 0.041362885 -0.08867706 0.06007009

model_145/time_distributed_145/dense_145/MatMul f4 [37, 32]
00000000: d84e 58be ffe3 17be 8506 f43d 0fe3 38be
00000010: 1846 893b 54e5 863e 65a0 d93d 20f9 a4bc
00000020: 9e66 073e 73a2 10be 0032 9fbe 8d58 5c3e
00000030: ef0d 4a3e 3047 4ebe 7e7c debd b3e5 503e
00000040: 1737 19be 5c5c 20be f87e fa3d ac17 88be
00000050: 28f1 02be c9cd 403e f138 963d f78b 88be
00000060: c9f0 85be 45ef c83c 9405 43be 10a3 f4bd
00000070: b2d9 87be ca2b 0d3c 7b7d 993d 3a98 e4bd
00000080: 07cb 68be c6c3 1e3e a0e4 cebe 9e4c 9f3c
00000090: 5098 65be 990a fabd 7a31 393d f6c2 8ebe
000000a0: 0f46 0f3e a825 033d 335a 85bb 929e 8d3e
000000b0: 43c3 33be f435 17be c086 e2bd b116 94be
000000c0: 00be 8bbd f9d1 19be bc9b 6dbe 6e21 afbd
000000d0: 89f3 0b3e 79b7 5ebe efec 573e 3013 173e
000000e0: 79cb ccbd 247f cf3d 43e0 4abe a1e4 bbbe
000000f0: b35a 2cbe 59e7 823e 5242 acbd 71d2 35be
00000100: 6ce5 8b3e 2a8b 963e 11d4 2dbe 6fd6 70be
00000110: 33d0 243e da6f 5cbe a1fd e6bd e21d b5bd
00000120: 28ee 9d3d 7046 0f3c f90b 5fbd 6231 66be
00000130: 4d32 6dbd cab7 78be 6883 1f3e c05c 0cbe
00000140: 2da5 4fbe a84b 7c3e 0c6b 60be 5b6d 613e
00000150: b2f9 843d b446 2a3e 38fc 923d ff30 453e
00000160: 890c 5abe 0c6d 84bd 260d 723e 388e 1abc
00000170: 73d6 263e e9db 8cbe 02ed b23d 29b9 423e
00000180: 4aa2 8dbe 7967 1cbd 06e7 a2be 3cb9 6a3e
00000190: ddf2 22be 1a80 78be cbe4 84bd 7f9b a5bc
000001a0: faec ae3d 4174 4fbe 0349 24bc 11b1 70be
000001b0: 25f1 debd ffc3 543e f21a b93c 469c b4be
000001c0: 455f 72bd 800a c5bc 47f9 163e a6d4 bb3c
000001d0: ba1a 84be fc94 173e c3e3 29bd fbab f43b
000001e0: fb77 8fbe 6624 17be cffb e0bd 6dd5 d7bd
000001f0: 8d9c 5fbe 0691 563d 0c47 6abd 499a 25be
00000200: 0498 24be 6f46 5ebe 22dd 223e 6002 dbbd
00000210: e65c 78be 07a1 2c3e 293b 053d 1da4 0d3e
00000220: 9af9 59bd 70a9 883e d57a 073e 2207 113e
00000230: 9504 56bd 5226 da3d 5ba5 a7bd a8e7 8a3d
00000240: a429 30be 3759 da3d cf2e b13d 689a ac3c
00000250: 3637 91be def7 2cbe 72c1 dfbd 1709 313c
00000260: 7cac d93d 51df 743e 2c49 a4be 1d08 2e3e
00000270: 8c12 2a3e 2e83 66bd a114 183d 91ab 343d
00000280: 37fd f4bd 35e2 6ebe ea7e 92be f149 873c
00000290: 5425 24be 74a9 9ebc d7e9 b9bc ce39 75bd
000002a0: 841d 6d3d f6dd 743d 5d25 ccbe c734 59ba
000002b0: cd38 823d 8759 c13d 690f d53d 8461 a6bd
000002c0: 0662 923d bf56 6f3e 57e7 2e3e 80bc 273e
000002d0: 02d3 c33d 6569 703e 6915 60be e18c 1abd
000002e0: 6673 7dbc eefa 183e 8131 ff3d aeb4 233e
000002f0: 0419 603e e3ba 9fbe f2a6 61be 56a4 423c
00000300: b879 9bbd 42a5 51bd e3ff 7e3d 9522 883e
00000310: d0e1 b93d 9230 ebbc fce9 383d fd0e ebbd
00000320: 2b1a 783e 02e7 7cbe 3f32 9abe 1330 773e
00000330: 5a7e 5cbe df6c a2be 8c98 73be 1c9f 9ebe
00000340: 0d48 5c3d 2fe3 fbbd 1f41 a33c 213c 11bd
00000350: db9a ac3d dd7d 123e 68f8 043c 2852 013e
00000360: b919 fb3c 4679 903e 424d 7cbe cd09 153d
00000370: f2b1 2d3e 2073 43be a9a3 c43d 475d 423c
00000380: 5c03 ae3d 1f7b 24be eaa8 7cbe 926b 373d
00000390: 8c06 7c3d 053b 093d eb74 003e a61d 61bd
000003a0: 02ba eebd 1749 a6be f717 75bd 0061 12be
000003b0: bded edbd 9c09 50be 9d4a 68be 586f 04be
000003c0: 9b7b 97be 10cd 493e 88fe c93b f65f 2ebe
000003d0: 2183 5dbe a4a4 d83d 4205 253d f749 f7bd
000003e0: 6214 683d b0c9 28be 8ace 19be c108 9fbe
000003f0: 9646 b3bc c6ad c2bd 73a6 27be 189e 29be
-0.21123827 -0.14833067 0.11915306 -0.18055366 0.004189264 0.26346838 0.10626296 -0.020138323
0.13222739 -0.1412447 -0.31092834 0.21518154 0.19731878 -0.20144343 -0.10863589 0.20400123
-0.14962421 -0.15660232 0.122312486 -0.2658056 -0.12787306 0.18828501 0.073350795 -0.26669285
-0.26160267 0.024528155 -0.19045097 -0.11945164 -0.26533276 0.008616397 0.074946366 -0.111618474
-0.22733699 0.15504369 -0.40408802 0.019445714 -0.22421384 -0.122090526 0.0452132 -0.27883118
0.13991569 0.032018334 -0.0040695905 0.27660042 -0.17554955 -0.14766675 -0.11060858 -0.28923562
-0.06823349 -0.15021504 -0.23203939 -0.08551298 0.1366712 -0.21749677 0.21086477 0.14753413
-0.09999747 0.10131672 -0.19812112 -0.36697868 -0.16831474 0.2556713 -0.08411087 -0.17756058
0.27323472 0.2940305 -0.16975428 -0.235193 0.16095047 -0.21527043 -0.112788446 -0.0884359
0.0771144 0.008744821 -0.054454777 -0.22479776 -0.0579093 -0.2428886 0.15577471 -0.13707256
-0.20277853 0.24638236 -0.21915835 0.22014372 0.06492938 0.16628534 0.07177013 0.19256972
-0.21293844 -0.064661115 0.23637828 -0.009433322 0.16292743 -0.27511528 0.08736612 0.19015945
-0.2766288 -0.038184617 -0.31816882 0.22922224 -0.15912957 -0.24267617 -0.06488951 -0.020215748
0.085412934 -0.20259191 -0.010027173 -0.23505045 -0.108858384 0.20777892 0.022595856 -0.35275477
-0.059172887 -0.024052858 0.1474353 0.022928547 -0.2580164 0.14802927 -0.041476976 0.0074667907
-0.28021225 -0.14759979 -0.10985529 -0.105387546 -0.21837063 0.0523844 -0.05719666 -0.16172136
-0.16073614 -0.21706556 0.15904668 -0.10693812 -0.24254188 0.16858302 0.032527123 0.13832135
-0.053216554 0.2669177 0.1323045 0.14162877 -0.052250464 0.1065184 -0.08185836 0.06782466
-0.17203385 0.10661548 0.08651506 0.02106972 -0.28362435 -0.16891429 -0.10925569 0.01080539
0.10628602 0.23913313 -0.32087076 0.16995282 0.16608638 -0.056277446 0.03712905 0.04410893
-0.119623594 -0.23328479 -0.28612453 0.01651475 -0.16029865 -0.01936791 -0.022694511 -0.05986958
0.057889476 0.05978199 -0.39872256 -0.00082857575 0.0635849 0.09440904 0.1040333 -0.081240684
0.07147603 0.23372935 0.17080437 0.16380501 0.09561731 0.23477705 -0.21883167 -0.03773201
-0.015469408 0.14939472 0.12460614 0.15986893 0.21884543 -0.3119727 -0.22036341 0.011880001
-0.075915754 -0.051182993 0.06225575 0.26588884 0.090762734 -0.028709684 0.04514502 -0.11477468
0.24228732 -0.24697497 -0.3011646 0.24139433 -0.21532574 -0.31723687 -0.23788661 -0.30980766
0.05377965 -0.12299191 0.019928513 -0.035457734 0.08427974 0.14305826 0.008115865 0.12628996
0.030651914 0.28217524 -0.24638847 0.0363863 0.16962412 -0.19086885 0.09601528 0.011863059
0.084967345 -0.16062592 -0.2467381 0.04478032 0.06152968 0.03350355 0.125446 -0.054959916
-0.11656572 -0.32477638 -0.059837308 -0.14294815 -0.116176106 -0.20316166 -0.22684713 -0.129331
-0.2958649 0.19707131 0.0061643757 -0.17028794 -0.21632053 0.10578278 0.040288217 -0.120746545
0.056660064 -0.16483188 -0.15020195 -0.31061366 -0.021884244 -0.09505801 -0.16372089 -0.16564214

model_145/lstm_580/lstm_cell_580/BiasAdd/ReadVariableOp/resource1 f4 [128]
00000000: 2d7f 0fbc 52e6 31bb 3659 60bb 6430 733b
00000010: a5d3 b6bb 8976 673a 40b2 6ab9 fe38 653b
00000020: d4b7 2739 713d 91bb 9624 093c 5d1a b63c
00000030: e118 dcba 7fbe 9a3b 88be febb 2c8f 00bb
00000040: c03e 14bc 3718 08bc 41bd bb3b 4f86 9dbb
00000050: c5ee e9b9 18a3 df3a adf3 7a3c 2afe d8bb
00000060: 44aa 6dbc 9bc5 0bbc 2211 ecba 591c 8ebc
00000070: 391a 21ba 325a ebb9 e1a5 6eba b0f6 9d3c
00000080: dbe6 7d3f eaab 823f e53e 803f 887b 803f
00000090: 0648 7e3f 8ac3 7f3f a759 803f a66f 803f
000000a0: 95b4 7f3f 957e 7e3f f708 813f 3139 823f
000000b0: 2f15 803f 6eb7 803f ab07 7e3f 8094 7f3f
000000c0: 8778 7e3f 81c8 7d3f 785b 803f bd68 803f
000000d0: d26b 803f 5569 7f3f ca59 813f a3ba 7e3f
000000e0: 2377 7e3f 5458 7e3f f50f 7f3f 37ae 783f
000000f0: 8762 7f3f 4d95 7f3f 2986 7f3f 0046 823f
00000100: 43a9 0cbc 6214 8b3b 8b7e de3b c5e0 f53b
00000110: 80fc b2bb 0dd1 e33a 10ab ebbb 5785 003b
00000120: 212e 033b f6a8 9abb bd1f 173c d90c a63c
00000130: 76d1 45bb 2e5d 9c3b 13bc 05bc 00a4 9ebb
00000140: 5f20 09bc 3421 03bc d262 b03b 960c 643b
00000150: b32c 0e3b 184b 27bb bb25 123c 506d c7bb
00000160: d72b 89bc 85dd d1bb 06ca 46bb 570f 5dbc
00000170: b98b b6ba 6094 11bb ce30 12ba 825d 9b3c
00000180: 1e49 09bc 6902 ba3b 5235 72bb 66b0 093c
00000190: e512 bebb 9244 5e3b 83b2 14bb f82a 5c3b
000001a0: 3c7a ad3b 2809 b4bb d9e7 103c 42f7 2c3c
000001b0: 580a 53bc 7934 5d3b 8d78 0abc 7cf3 923b
000001c0: a042 0dbc f9cf febb 25fb a13b 9bf5 a43b
000001d0: 57a4 d837 4a68 2d3a 0d9c 373c 88da 423b
000001e0: 3cc0 74bc 9f97 eebb 226a aabb d137 bebc
000001f0: 600b 823b 6073 d43a b68b 65ba 6502 813c
-0.008758348 -0.0027145338 -0.0034232861 0.00371077 -0.005579429 0.0008829614 -0.00022382382 0.0034976597
0.00015994842 -0.004432373 0.008370539 0.022229368 -0.0016792082 0.004722416 -0.007774178 -0.0019616587
-0.009048164 -0.0083065545 0.005729348 -0.0048072706 -0.0004461912 0.0017062156 0.015316886 -0.0066220956
-0.0145059265 -0.0085309995 -0.0018010477 -0.017347502 -0.000614557 -0.00044889894 -0.00091036974 0.019282669
0.9918038 1.0208714 1.0019194 1.0037699 0.9932865 0.99907744 1.002736 1.0034072
0.9988492 0.994119 1.0080861 1.0173703 1.0006465 1.0055978 0.9923045 0.9983597
0.9940266 0.9913407 1.0027914 1.0031964 1.0032904 0.997701 1.0105526 0.99503535
0.9940054 0.9935353 0.99633723 0.9714083 0.99759716 0.9983719 0.9981409 1.0177612
-0.008585277 0.004244373 0.0067899874 0.0075036013 -0.0054622293 0.0017381028 -0.007192023 0.0019610727
0.0020016509 -0.0047198487 0.009223876 0.020269798 -0.0030184663 0.00477185 -0.008162516 -0.0048413277
-0.008369534 -0.008003522 0.005382874 0.003479754 0.0021694123 -0.0025526937 0.008920128 -0.006086029
-0.016744537 -0.006404581 -0.0030332818 -0.013492427 -0.0013927139 -0.0022213683 -0.00055767305 0.018965486
-0.008379249 0.005676557 -0.003695805 0.008403873 -0.0058005922 0.0033915383 -0.002268941 0.0033594947
0.0052941125 -0.0054942556 0.008844339 0.010556998 -0.012880884 0.00337532 -0.008451593 0.004484592
-0.008621842 -0.007776257 0.004943269 0.0050341613 2.5825733e-05 0.00066149666 0.011206639 0.0029732306
-0.01493841 -0.0072812582 -0.0052006403 -0.023219975 0.003968641 0.0016208701 -0.0008756475 0.015748212

model_145/lstm_580/while/lstm_cell_580/MatMul_1 f4 [128, 32]
00000000: 8246 273e 865f ddbd 35a0 f13d 2661 b43d
00000010: 2384 6f3d 9659 26be dc43 023d 47c5 fbbb
00000020: 163d 823d e67f e93c c1ba b23d 9764 b8bb
00000030: 523e 40be 42fe 9b3d 0da1 e03d b425 c1bc
00000040: 6c49 833c c456 003e b516 afbb 5bb0 e43c
00000050: 6762 94bd ebd6 41bd 808e c93d c727 debc
00000060: 1802 0d3e 072f f3bd 7534 b13d ae1f c63d
00000070: 7617 4e3c 212f 743d a49c 8a3d dd32 e53d
00000080: bb01 9a3d 88d9 4abe 5e47 6cbc 6040 bd3d
00000090: 5bc0 69ba 52c6 f7bc 2ed5 16bc 4e42 08be
000000a0: 281a 9039 3c2d 613d e41e 2d3e 05e3 a8bc
000000b0: 1d36 d5bb 3b23 843d 30f5 80bc 39a3 9cbc
000000c0: 5091 38bd 033c 4c3d 8fd9 a3bc 83a4 88bc
000000d0: 3dbb e4bd eee6 d63d 7d26 d0bd e685 813c
000000e0: 623f b43c eb32 17be 89fa 9d3d d8dc 1e3d
000000f0: 3188 053d 89f9 133c 9dbf 50bc 0d6a cdbd
00000100: e597 aebd 1433 fc3c 7566 843d cc63 a43d
00000110: 1ca9 a83c e857 843d a3e7 89bc beaa c4bd
00000120: 1c06 b7bd ce77 2c3c 15d0 82bd 430f 1f3d
00000130: c32e 9bbd 7a4a ee3d 92e8 513e 6dcc f5bd
00000140: 280a f13c 05a3 173d eb88 35bd 142e a4bd
00000150: 0d77 ea3c 662e 063b 1547 b1bd 377c 05bb
00000160: 8653 8f3b 344b 0abd 9687 b83c 45d4 57bd
00000170: 67b2 2e3e 0ea4 2dbe 4175 ebbd 97fb ffbc
00000180: b177 cb3d bdd7 28bd 4595 27bd 9769 dcbd
00000190: db33 d5bc 9d82 b8bd 7c63 7fbc 4a5e abbd
000001a0: 100f 49bd dbc8 1abd 5128 04be bb6b 7d3d
000001b0: ae21 39bd 3071 3bbe f73d 693d fb5f 273e
000001c0: 457f ea3d 29e6 a5bd c56b 563b c34c 7bbd
000001d0: 1835 df39 d9f9 4e3d 91d0 78bd 6475 fa3d
000001e0: 9421 8f3c 756c a8bd a1b5 4b3c d1e6 f3bc
000001f0: 2255 31be f5c3 993d a366 003d 54f0 d33b
00000200: 19a5 ce3c fc2f 543c d7ae 613d 0c74 103e
00000210: 8099 3b3b b1f7 793d 0a38 13be b071 5ebd
00000220: 6855 1c3c 3e4f 193e 2565 05be 741e 853d
00000230: e235 e03c b056 dabc 5d49 e03c 51ab 103c
00000240: 3b19 04be d747 67be 9d7c a8bc 67f3 9abd
00000250: e340 3fbd 64e9 e53d 2de9 273e fd82 e03c
00000260: 23bf f0bd 527e 0e3e 6945 1a3d 925b 92bc
00000270: 0f9e 95bd d620 153e 9367 433e f706 06be
00000280: c8cd a13d b1cd fabd 95e3 633d d39e 05bd
00000290: 5dba 8f3c 2a58 b93c eb22 a4bd d17b bcbd
000002a0: adb9 2cbe 31f0 4c3c cb99 c0bd d169 363e
000002b0: b89f cebd 1794 acbd 1f83 abbd c57c 49ba
000002c0: 62f4 8abd 339b 0dbe 87a7 883d 82f5 853b
000002d0: 8170 49bd 69e9 ebbd 232d 79bd 28d5 41be
000002e0: 68e3 92bd f507 65bd 1528 053c 15ef 9dbd
000002f0: 54c0 85bd 051a 183e 2972 ab3c 4e16 2c3c
00000300: fa93 293e dd67 02be 640b 1f3e b88c 76bd
00000310: 326d 0abd b8ab bb3d 90f0 233d 18c7 d5bc
00000320: 097d c3bd 452a 233e 4bdf 50bc fbea 7fbd
00000330: 357e 153e 01cb 16be 6aa3 893d 038a 853c
00000340: a750 0fbe 4e73 983d a90d 703d 8aa5 91bd
00000350: 86fc 70bd bc71 a4bd b40f 1dbd 64a0 cfbc
00000360: e57b 5c3d b53a 3b3e 9975 483e 7ef0 b63c
00000370: dda4 cc3a 9389 8fbd 9805 8abd cfc3 79bd
00000380: dba2 c6bb 9028 c93d f21d 4f3e 46e4 7ebd
00000390: 5412 33bd f5ff 0d3e 9cd4 a63d 6a14 873c
000003a0: 97dd 33bc ce64 adbd 9417 c03b cac3 453d
000003b0: 60c6 fd3d 65e8 e1bd 0890 093d e4dd 853d
000003c0: 159b b83d 1d18 e83d 2344 5a3d 01f4 e23d
000003d0: 96c3 85bb c812 a23d 154d cc3b b86b c33d
000003e0: d09c ffbd f610 f13c be04 cd3d 8aba 08bd
000003f0: 2233 15be 4ddf a1bc 8a5f 2ebe 1660 4a3d
0.1633549 -0.10809235 0.11798135 0.08807592 0.058475625 -0.16245112 0.031802997 -0.0076834294
0.063593075 0.02850337 0.08727027 -0.0056272256 -0.18773773 0.07616855 0.10968218 -0.023577549
0.016026221 0.12533098 -0.005343283 0.027916124 -0.07245331 -0.047324102 0.09841633 -0.027118577
0.1377033 -0.11874204 0.086525835 0.09674011 0.012578836 0.059615258 0.06768158 0.11191342
0.07519861 -0.19809544 -0.014421312 0.09240794 -0.0008916908 -0.030245934 -0.009206099 -0.13306543
0.00027485308 0.05497478 0.16906315 -0.020616064 -0.006506695 0.06452032 -0.015741915 -0.0191208
-0.045060456 0.04986192 -0.020001201 -0.016680008 -0.11168525 0.10493265 -0.10163591 0.015810918
0.02200288 -0.14765517 0.077138014 0.03878483 0.032600585 0.009031662 -0.012740997 -0.10029993
-0.08525065 0.030786075 0.06464855 0.08026847 0.02058845 0.06462079 -0.016834086 -0.09602879
-0.08936712 0.010526611 -0.06387345 0.038832914 -0.075772785 0.11635299 0.20498875 -0.12001882
0.029423788 0.037020702 -0.04432003 -0.08016601 0.028621221 0.0020474433 -0.08656136 -0.0020368227
0.0043739704 -0.033763126 0.02252559 -0.05269267 0.17060243 -0.16957113 -0.11496974 -0.031247897
0.09934939 -0.04122137 -0.04091384 -0.10762327 -0.026025703 -0.090092875 -0.015587684 -0.083675936
-0.04908663 -0.037789207 -0.12906004 0.061870318 -0.045198135 -0.18304896 0.05694386 0.16345207
0.11450056 -0.0810054 0.0032718044 -0.061352503 0.00042573432 0.050531242 -0.06074578 0.12229422
0.017472066 -0.082238115 0.01243344 -0.029773148 -0.17317632 0.07508079 0.031347882 0.0064678583
0.02522521 0.0129508935 0.05509838 0.14106768 0.0028625429 0.061027233 -0.14376846 -0.05430764
0.009541847 0.14971635 -0.13026865 0.06499949 0.027369443 -0.026652664 0.027378732 0.0088299075
-0.1290025 -0.22585998 -0.020567233 -0.075659566 -0.04669274 0.11226156 0.16397543 0.02740621
-0.117552064 0.13915375 0.03766385 -0.01786593 -0.07305538 0.14563307 0.19082479 -0.13088594
0.07900578 -0.12246264 0.05563696 -0.03262217 0.01754492 0.022625048 -0.080144726 -0.092033036
-0.16867705 0.012508438 -0.09404334 0.17813803 -0.10089058 -0.084266834 -0.08374619 -0.00076861336
-0.067848936 -0.13828735 0.06672578 0.0040881047 -0.049179558 -0.11519129 -0.06083406 -0.18928969
-0.071722806 -0.05591579 0.008127232 -0.07711617 -0.06530824 0.14853676 0.02092846 0.010503365
0.16560355 -0.12734933 0.15531689 -0.060192794 -0.033795543 0.09163612 0.04002434 -0.026095912
-0.09545333 0.15934093 -0.01274855 -0.062479954 0.14598925 -0.14725877 0.06720622 0.01630116
-0.1399561 0.074438676 0.058606777 -0.07111652 -0.058834575 -0.080295056 -0.038345054 -0.025345035
0.053829093 0.18284114 0.1957611 0.022331472 0.0015613098 -0.07008662 -0.06739348 -0.060977753
-0.0060618944 0.0982219 0.20226267 -0.062229417 -0.04371865 0.13867171 0.08146021 0.016489226
-0.010978124 -0.084664926 0.0058621857 0.048282422 0.12391353 -0.11030654 0.033584625 0.06536463
0.090139546 0.11332724 0.053287636 0.11081696 -0.0040821536 0.079137385 0.006234775 0.0954203
-0.124810815 0.029427033 0.1001067 -0.033381023 -0.14570287 -0.019759798 -0.17028633 0.04940804

model_145/lstm_580/while/lstm_cell_580/MatMul f4 [128, 37]
00000000: bf89 843d 6783 b1bd 338f 52bd e20a 2cbe
00000010: c515 3bbe d5e8 63bc 5979 ba3d 1299 0d3e
00000020: c5cc 1d3e 7426 893c 40c8 d53d 89d9 99bd
00000030: 54fc 353e b3d1 a43d f049 e1bd 8f11 94bd
00000040: ade1 fa3c 41f2 0dbd 844c fc3d bb0d 4a3e
00000050: 906c 143d 25cc 32be 030b 56bd a242 25be
00000060: 4c82 93bc c6f2 9f3d 5058 38bd 1ee8 cbbd
00000070: 7f9f 97bc 0a91 f9bd a142 373c ca8d 6f3d
00000080: 4c1f 293e 66de 553d 845d 333b eea4 49bd
00000090: 3441 2ebd 8f1c 263e 7ae7 6ebd 5d91 1ebd
000000a0: 03f4 1fbe e4bd 09be c36c 8f3d 8aee 813c
000000b0: 326f e83d b1ce e7bd 77ad 9c3c 7874 983d
000000c0: 91b4 40be 2176 663c 6789 ad3d 8366 adbd
000000d0: 1023 5e3d 07eb c4bd 0eeb 163e 9cb9 18be
000000e0: e989 2abe 7f9a 89bd 908d ebbd 1014 423e
000000f0: a815 ab3d bdc7 b8bd 6649 2ebe b19f 00bd
00000100: fe07 1bbe 6c7e 88bd 3493 36bb fb19 35be
00000110: 67df 14be 15ff 97bd 1b61 41be 49a4 6ebc
00000120: f3d7 d83d 2a4d 203e 7a2f dabd 2ce3 37bd
00000130: 3b46 083e 6f76 a2bd 462b e03d 5108 093e
00000140: f0ce 313e 89f4 e6bc 93cf 33be b43b 94bd
00000150: 5afb 0cbe 5b20 d5bd 62a5 d2bd 341b c7bd
00000160: 6776 febd a733 82bd 6d75 253e c65b 093d
00000170: 639f 3bbe 4ec9 b53d 8fac 613d 7e45 f43d
00000180: a9a8 efbd fed3 bc3d c555 df3d 5ecf 2abe
00000190: beb2 ee3c d1a0 bc3d 2c99 7e3d a76b 40bd
000001a0: e508 02be d2c9 9b3d 8135 2b3d 7c74 26bd
000001b0: cfdf f53d da83 f83d caca 24bd 110f 2a3e
000001c0: fcfe 003e 9d02 073e 0184 2a3e af02 19be
000001d0: af40 cdbd 6075 453e eab1 0cba cb4d bc3d
000001e0: a2c5 203d eb65 e6bc 7015 9dbd 89da c33d
000001f0: b07c 20be 9078 e53d 6a03 3f3e 8431 3abe
00000200: 077b cd3d 63a9 2dbe de4d eabd 756b 883d
00000210: 34c3 2d3e d11b f33d 3408 28be 1313 1c3e
00000220: e012 29be fe8a 3d3e 1de0 bbbd 30ec f33d
00000230: 202b 0abe 83de 08be 6854 39be 34b5 d4bc
00000240: f833 9cbd 93c0 0ebc 9d44 3e3d 357e 913c
00000250: 52c3 24be 42e3 e1bd 8246 babd 9f6e 313e
00000260: 43e6 0fbe aa0b 343e bf50 123e cf24 1cbd
00000270: a889 d7bd f385 61bc 3f6e 3abe d8a7 7c3d
00000280: e507 f5bd de8e cfbd 055f ed3d 9657 fa3d
00000290: 57f7 bd3d f4c7 ff3c b54e de3d 1573 2c3e
000002a0: 62b8 fc3c c748 343e 9962 0c3e 43fe ce3d
000002b0: 3dd0 27bd f4c2 2fbe 8585 323e 07c2 c53c
000002c0: 6692 16be 3104 c1bc 11f4 f0bd 9753 c83d
000002d0: 6d7d 1e3e 272a 1cbe 502b d03d d037 1c3e
000002e0: dca6 193e ba90 913c 6d35 34be 84e7 d9bd
000002f0: 9cdd ad3c c078 21be cfd1 04bc c456 eebc
00000300: 92dd ed3d ca79 7abc c684 473e cae1 0bbe
00000310: fb75 633c 1bcb bcbd 1c22 2e3e fde5 663d
00000320: 6b05 9ebd 262d 00be e3c2 ed3d 9f13 08be
00000330: a22c 003e 9290 efbd 2b0c d2bb 2c4a 393e
00000340: d96e b0bd c0ee c33d aa61 333e f09d bf3d
00000350: 4081 dbbd 15b4 043e 64a6 f23d c64f 33be
00000360: 90fc 2fbe 2fdd 05be 38eb 1e3e ac91 903c
00000370: 4ec7 e4bd 9ff1 3d3e 3063 603c 4853 7bbc
00000380: 954b 81bd 0b40 efbd eef3 e93c 8f6f 6cbd
00000390: f60f ac3d 74ea 013e d765 403e bae3 36be
000003a0: 842f ab3d 35bd ee3b b6de 123e 0664 c23d
000003b0: fe63 1bbe 95e4 473d 48c0 8abd b34d 71bc
000003c0: 28d1 30be 2458 3dbe fedf 293d 1046 d7bc
000003d0: 90d3 0a3e 8c64 3f3e 91a7 4abd c5bc 12bd
000003e0: c3bf 193e deb4 ff3b 662e 40be 6283 4c3d
000003f0: c747 cf3d 87b8 13be 90d7 d1bd e46b cd3d
0.064715855 -0.08667641 -0.051406097 -0.16801026 -0.18270023 -0.013910492 0.091051765 0.13827923
0.15410145 0.016741969 0.10438585 -0.07512195 0.17772037 0.080478095 -0.110004306 -0.072299115
0.030625189 -0.03465486 0.12319282 0.197318 0.036236346 -0.17460687 -0.052256595 -0.161387
-0.018006466 0.07809977 -0.045006096 -0.09956382 -0.01850867 -0.12185867 0.011185319 0.05848483
0.16515845 0.05221405 0.0027368972 -0.049229555 -0.04254265 0.16221832 -0.058326222 -0.038712848
-0.15620427 -0.13451344 0.070031665 0.015860815 0.11349334 -0.1131872 0.019125683 0.0744409
-0.1881888 0.01406625 0.08473473 -0.08466818 0.054232657 -0.096151404 0.14738104 -0.14914554
-0.16654171 -0.06718921 -0.1150161 0.18952966 0.0835374 -0.09022472 -0.17020187 -0.031402294
-0.15139768 -0.06664738 -0.0027858736 -0.17685692 -0.14538346 -0.074217 -0.18884699 -0.014565536
0.10588064 0.15654436 -0.10653587 -0.044894382 0.13308041 -0.07932746 0.10945754 0.13382079
0.17364097 -0.028192775 -0.17559652 -0.0723795 -0.13767758 -0.10406562 -0.102854505 -0.097219855
-0.12424927 -0.06357508 0.16158076 0.033534788 -0.1832252 0.088762864 0.055096205 0.11927317
-0.11702091 0.09220122 0.10905031 -0.16680667 0.029137965 0.09210361 0.062157795 -0.046977665
-0.12698705 0.076068535 0.041799072 -0.040638432 0.12005579 0.12134524 -0.040232457 0.1660731
0.12597269 0.1318459 0.16651918 -0.1494243 -0.10022103 0.19283056 -0.00053670874 0.09194525
0.039250977 -0.02812477 -0.076701045 0.09563167 -0.15672565 0.11204636 0.18653646 -0.18182951
0.10033231 -0.16959147 -0.11440633 0.06661121 0.16968995 0.1187054 -0.16409379 0.15241651
-0.16511106 0.18510053 -0.091736056 0.119102836 -0.13493013 -0.13366131 -0.18098605 -0.02596531
-0.076271 -0.008712905 0.046452153 0.017760376 -0.16090134 -0.11029674 -0.090954795 0.17327355
-0.14052682 0.17582574 0.14288615 -0.03812104 -0.10524303 -0.013764846 -0.18206118 0.061683506
-0.119643964 -0.10134672 0.11590389 0.12223737 0.09275692 0.031223275 0.10854856 0.16840775
0.03084964 0.17605887 0.13709487 0.1010709 -0.040970076 -0.17164212 0.17433746 0.024140371
-0.14704284 -0.023561569 -0.11765302 0.097815685 0.15477534 -0.15250455 0.10164511 0.15255666
0.15005058 0.017769206 -0.17598505 -0.10639861 0.021223836 -0.15768719 -0.008106663 -0.029094107
0.11614527 -0.015287826 0.19484243 -0.1366035 0.013883109 -0.09218427 0.17005199 0.056371678
-0.07715877 -0.12517223 0.11609437 -0.13288735 0.12517026 -0.116974965 -0.006410142 0.180947
-0.086148925 0.09567022 0.17517725 0.09356296 -0.10718012 0.12959321 0.11848143 -0.175109
-0.17186189 -0.13072656 0.15519416 0.017647587 -0.11170827 0.18549202 0.013695523 -0.01533968
-0.06313244 -0.11682137 0.028558698 -0.057723578 0.08401482 0.12687093 0.18788849 -0.17860308
0.08358672 0.007285739 0.1434277 0.09491734 -0.15174863 0.048801977 -0.06774956 -0.014727998
-0.17267287 -0.18490654 0.04147338 -0.026278526 0.13557267 0.186907 -0.04947621 -0.035824556
0.15014558 0.0078035435 -0.187677 0.049929984 0.10121112 -0.1442586 -0.102461934 0.10030344

model_145/lstm_581/lstm_cell_581/BiasAdd/ReadVariableOp/resource1 f4 [64]
00000000: 3e0c ad3b d937 3b3d d0f0 053c cf90 a33b
00000010: 4083 eabb 58d6 513b 1353 83bb 2b7e babb
00000020: d79d 85bb 2735 af3b 981c c5bb 097f d03c
00000030: 29c2 dbbb 048b 02bc fd71 babb cd8e d0bc
00000040: bdc7 803f abb7 853f 2475 803f 00b6 803f
00000050: 293c 7f3f c3d8 7f3f 21e4 7e3f 3b7e 7e3f
00000060: 1e15 7e3f 08ef 803f be77 7e3f c9a9 853f
00000070: 0153 7e3f e679 7d3f 2bb7 7e3f 25fc 7c3f
00000080: 203b f23b 71a2 903d e8cb 303c 403d 183c
00000090: 033e d6bb 9b59 e23b e5d6 a1bb 65fa 8fbb
000000a0: 55c7 bcbb 51ac c03b 8aae c3bb 1b2f 1b3d
000000b0: 8ad1 d3bb e7df 1dbc 4599 67bb 4874 a3bc
000000c0: 54a4 273c d138 403d 37be 953b 9e89 143c
000000d0: e21c e0bb 8cbc 0bbc ac4d 94bb 903c 9fbb
000000e0: 61e5 05bc d4ad ce3b bda0 bfbb f8fb f93c
000000f0: 4dec f2bb 9fc1 63bc d7db c63b 67dd 02bd
0.0052810004 0.045707557 0.00817509 0.0049916278 -0.0071567595 0.0032018628 -0.004007706 -0.00569131
-0.004077654 0.0053469124 -0.0060153715 0.0254512 -0.0067064953 -0.007967714 -0.005689858 -0.025458718
1.0060955 1.0446676 1.0035748 1.0055542 0.9970117 0.9994013 0.9956685 0.9941136
0.9925097 1.0072947 0.9940146 1.0442439 0.99345404 0.9901413 0.9949824 0.9882224
0.007392302 0.07062233 0.010790803 0.009291947 -0.006538154 0.0069076545 -0.0049389475 -0.004393863
-0.005761067 0.0058799167 -0.0059717344 0.03788672 -0.006464188 -0.009635902 -0.0035339158 -0.019952908
0.01023205 0.046929184 0.0045697945 0.009066014 -0.0068393806 -0.00852884 -0.004525861 -0.0048595145
-0.008172364 0.006307343 -0.005848019 0.030515656 -0.007413423 -0.013901143 0.0060686874 -0.031949427

model_145/lstm_581/while/lstm_cell_581/MatMul_1 f4 [64, 16]
00000000: 865a 26be 2d96 953d 1705 a1bd 3f2c 1c3e
00000010: 4dcd c9bd 8f34 2b3e 6792 b33d bf56 eb3c
00000020: 937b ec3d 4051 e7bd f9e6 33be a74e 69bc
00000030: db20 23bd eb8f ffbc fb73 53bd 092b 273e
00000040: 7a96 8a3e 4e4f 4a3c 4315 163e e4ec e6bd
00000050: 75d6 0c3e 71e0 8c3b 8002 753b 9649 c3bc
00000060: 50b2 1d3e 80da d23c 7b9a ae3d 3785 5fbc
00000070: 6170 6e3d e357 34be ff8d 11be c7d7 14bc
00000080: 5a83 693e 731e cbbd 8d00 803c b48d 2a3d
00000090: 05b1 4cbc c40b bdbd a6b8 cdbd 52e5 c8bd
000000a0: dc1f 4c3e c953 cd3d ece0 d73d 6170 7a3b
000000b0: 19c3 0f3d 5bbe 1b3e 3072 f13d 29e1 993d
000000c0: d51c 65bd 79b4 433e 6ff2 15bd d4d3 173d
000000d0: 3e65 333e e6a0 aa3d 46b8 8a3e 9834 f53d
000000e0: 5fc5 b7bd 704d 0bbe afd1 c83d 7298 fbbc
000000f0: 0734 013e f7d8 d33c 74b2 c5bc 07b8 c73c
00000100: 478c 163c 6810 42bc 6b34 e93c 8b43 9c3d
00000110: b4dd a73e 7b22 a13d 1237 27be 9b6e c0bd
00000120: 7004 a9bd c397 4bbd 01d9 79bd 6e0c 73be
00000130: 6765 003e 6ed8 5ebe c66c cb3c 4f4d f63c
00000140: 0b34 103a bb5b 23bc 4e5f 3bbe 9db4 45bd
00000150: 1544 ec3d cb74 1ebe e75d 01bd 17c0 253e
00000160: de34 6f3e 75bf 06bd 414d 373e a395 7ebc
00000170: 5c15 3bbe dd25 cfbc 0298 4f3d 66bf 71bd
00000180: 464f 2bbd 6f67 dfbd 64d0 423d 26ca b4bd
00000190: 9aab bebd af5c 63be 1eda 313e a81f a9bd
000001a0: 956f 6dbd 722c 9a3d d4ab 79bd 623f 503d
000001b0: cc35 d53d 4434 70be 1992 4c3e 7c18 aabd
000001c0: 6f63 ddbd fc6e b1be 9f74 37bd 2120 2f3e
000001d0: 17a1 0d3e 4a08 a7bb ef6e fbbb eb81 e73d
000001e0: 3c4a 4cbc dc37 803e dcb1 36be f4f1 593c
000001f0: 9a49 e03d 05ec d53d b773 893c 01aa c2bc
00000200: dba6 8bbd c056 04be 7310 a0be acdf 183e
00000210: 3d47 c93d 4191 1abe 0a8e e33d 7f74 c0bd
00000220: 5b3d ef3c cdef 2d3d 7790 fcbc a8a1 97bd
00000230: 927a 10bd 0536 aa3c 6235 3c3d 7d23 99bd
00000240: d547 87be f59f 61bb 8161 2dbd 5639 e3bc
00000250: 6354 d83d 7cb4 0d3e 87a2 d53c db56 10be
00000260: 8456 09be 51ce bf3d 3141 673e aafe 113e
00000270: 6467 d53c 4615 d4bd d0e7 aabd 101b 113e
00000280: c903 a5be e258 df3d ded8 c23d 9be8 3c3d
00000290: 616d cdbd 47a4 33be e384 9cbb 0758 243e
000002a0: 2086 313d 06bb a83d 7b95 98bd 3429 83bd
000002b0: 750e 66be 0e7f 19be 2fd3 a1be 6f3b 7f3b
000002c0: 0b02 32be 94ed 423c 65e2 26be f620 f43d
000002d0: f36c 223e 1d91 4dbd 2c25 bfbd dc03 0d3d
000002e0: 2b8f 8fbd 6f2c 9d3d 06e5 fb3c b7ab b3bd
000002f0: 4c0a 1f3e 370a 40bd 15d6 7fbd 8819 d8bd
00000300: 2fd1 c3bd 50db 123d be4c 1cbc 7752 1fbd
00000310: aae7 67be 0209 173d c79a ab3d b4db 4e3d
00000320: 2942 e03c 8cda 83bd b880 ac3e a79a 6fbd
00000330: 94d9 1c3d 8e48 10be ffd8 bd3d 0016 18bd
00000340: 1c78 04be 1694 bfbd 7a91 45be 9701 96bc
00000350: 8968 ebbd 40e8 253e 4d31 d43d 1ec3 5abe
00000360: c12e a73d fb5e aebd ff6e e8bd d6af b53e
00000370: 176e 963d 57e7 a8bd 5808 5dbd b657 753d
00000380: 81f7 40be 84e2 123e f898 573d 77ad 48be
00000390: 9581 583d dc3e cabd c29a b3bc b680 093d
000003a0: be6d b23d c99a ecbd 94b0 f63d 5dd9 34be
000003b0: 9553 083e ca64 f3bd e30d 943e 3023 2a3d
000003c0: 9d95 a8bc 07f5 113b 92b2 77bd 052b d3bd
000003d0: 2b23 cabd 3212 8e3b 2676 f33d 63c0 4ebb
000003e0: b824 afbd 485e 363e b5ae 44be 2ce4 f2bd
000003f0: a01f 0abd 8093 683d beb4 3fbe 1f0e 263e
-0.1624547 0.073040344 -0.07862299 0.15251254 -0.09853611 0.16719268 0.087681584 0.028727887
0.115470074 -0.11294794 -0.17568578 -0.014239944 -0.039826255 -0.031196555 -0.05162428 0.1632501
0.2706793 0.012348009 0.14656548 -0.11275652 0.13753684 0.0042992164 0.0037385523 -0.0238388
0.15400052 0.025738955 0.085255586 -0.013642601 0.05821264 -0.17611651 -0.14214323 -0.009084648
0.22804013 -0.09917917 0.015625263 0.041639045 -0.012493377 -0.0923076 -0.100449845 -0.098093644
0.19934028 0.100257464 0.10540947 0.0038213956 0.03509817 0.15209334 0.11789358 0.07513649
-0.0559357 0.19111814 -0.036608156 0.03706725 0.1751909 0.0833147 0.27093714 0.11972922
-0.089731924 -0.13603759 0.09805619 -0.03071234 0.12617503 0.025860293 -0.024132945 0.024379743
0.009188718 -0.011844732 0.028467378 0.0763007 0.32786334 0.07867905 -0.16329601 -0.09396096
-0.082527995 -0.049705278 -0.060997967 -0.2373521 0.12538682 -0.21762249 0.02483214 0.03006616
0.0005500919 -0.009970601 -0.18298075 -0.04826795 0.11536423 -0.1547424 -0.031583693 0.16186558
0.23360011 -0.03289743 0.17900564 -0.015538606 -0.18269867 -0.02528661 0.050682075 -0.059020422
-0.041823648 -0.109084 0.047562018 -0.08827619 -0.09310074 -0.22203325 0.17368361 -0.08257991
-0.05796774 0.075280085 -0.060954884 0.050841697 0.104106516 -0.23457438 0.19977607 -0.08305451
-0.10809981 -0.34654987 -0.044788953 0.171021 0.13830982 -0.0050974237 -0.0076731364 0.11304077
-0.012468871 0.25042617 -0.17841285 0.013302315 0.109515384 0.10445408 0.01677881 -0.023762705
-0.068189345 -0.12923717 -0.3126255 0.14929074 0.09828041 -0.15094472 0.11111076 -0.0939722
0.029204061 0.04246502 -0.030830605 -0.0740388 -0.035273142 0.020777712 0.045949347 -0.07477472
-0.2642199 -0.0034427617 -0.042329315 -0.0277373 0.105629705 0.1383838 0.026078476 -0.14095633
-0.1341191 0.093655236 0.22583462 0.14257303 0.026050277 -0.1035562 -0.08344996 0.1417048
-0.3222945 0.10905625 0.095140204 0.046120267 -0.10030628 -0.17543136 -0.0047765835 0.16049205
0.043340802 0.08238797 -0.07450386 -0.06404343 -0.22466452 -0.14989874 -0.31606433 0.0038945337
-0.17383592 0.011897463 -0.162973 0.11920349 0.15861873 -0.05018722 -0.09333262 0.03442751
-0.07009729 0.07674491 0.030748855 -0.087729864 0.15531272 -0.04688474 -0.062460024 -0.10551745
-0.09561383 0.035853684 -0.009539781 -0.038897004 -0.22646967 0.036873825 0.08379131 0.050502494
0.027375298 -0.06438169 0.33691955 -0.058497097 0.038293436 -0.14090177 0.09269904 -0.037130356
-0.12936443 -0.09354417 -0.19293776 -0.018311305 -0.11494548 0.16201878 0.10360966 -0.21363494
0.081632145 -0.0851421 -0.11349296 0.35485715 0.07345217 -0.082472496 -0.053963035 0.0598981
-0.18844415 0.14344221 0.052636117 -0.19597422 0.052857954 -0.09875271 -0.02192438 0.033570014
0.08712338 -0.115529604 0.12045398 -0.17661043 0.13313134 -0.11884458 0.28916845 0.041537464
-0.020579154 0.0022271292 -0.060473032 -0.1031094 -0.09869989 0.004335665 0.118877694 -0.0031547777
-0.085519254 0.17809403 -0.1920727 -0.118599266 -0.033721566 0.056781292 -0.18721291 0.16216324
